Deep Learning/Data/iris.tflite (tflite, 20884 bytes, 4 tensors)

sequential_2/dense_5/BiasAdd/ReadVariableOp f4 [3]
00000000: c2c5 fe3c cb50 bf3c 9236 48bd
0.031100158 0.023353955 -0.048880167

sequential_2/dense_4/BiasAdd/ReadVariableOp f4 [600]
00000000: dd28 053d ab92 05bd 0000 0000 0000 0000
00000010: 0000 0000 3306 b2bc fd8e 35bd ee6c bebb
00000020: 0000 0000 0000 0000 5e13 55bd 3239 a53c
00000030: 5d2a e9bc 1b3e edbb 90ba 6b3d bb9f a2bc
00000040: 0000 0000 0000 0000 6840 58bd 0a0e 74bc
00000050: 4f9c 9ebc 0000 0000 0000 0000 3301 963d
00000060: bed3 923c 0000 0000 3958 f93c 3be9 403d
00000070: ae9a aabc 9fcf 15bc 3113 47bd 683e a7bb
00000080: 0000 0000 252d cfbc 255a 1c3d 0000 0000
00000090: b945 9d3d 7d82 793d 5318 383c 0000 0000
000000a0: 0000 0000 679e 69bd 7070 953d 9c31 3e3d
000000b0: 6725 c7bd a49a 8f3d e36b e7bc 6b1a 8cbb
000000c0: cd7d c73b 0000 0000 97b0 88bc a6b7 5dbd
000000d0: e4f8 b83d 27fb e7ba 6078 9a3d d626 13bc
000000e0: 0000 0000 0000 0000 28f6 7dbc 110c 8bbd
000000f0: 5435 82bc 0000 0000 fb55 4dbd 9621 e13c
00000100: 6d77 95bc e0d4 42bd 0000 0000 0000 0000
00000110: 7717 1dbc 0000 0000 a489 92bc 028e 22bb
00000120: 0000 0000 351e cebc 3e43 e3bc 2315 9bbc
00000130: 0ef4 153d 0335 18bc 0000 0000 c4e3 3d3d
00000140: 0000 0000 0503 2b3d a4f1 f8bb 0000 0000
00000150: 0000 0000 d17c 673d 6aa8 23bd 66fb aab9
00000160: 0000 0000 0000 0000 b299 29bd 0000 0000
00000170: 9353 47bd 0000 0000 0000 0000 46a9 e7bc
00000180: 884f 393d 0000 0000 0000 0000 0000 0000
00000190: 09f8 e9bc 0000 0000 5d3e 7d3d 0000 0000
000001a0: 0000 0000 78b9 143d 7798 763d 5f4f febb
000001b0: 0000 0000 f18e b4bb 803d efbc 0000 0000
000001c0: 8298 db3c 0381 763c 0000 0000 0000 0000
000001d0: 27ec 28bc 7d5c 35bd 6668 44bd 798a 623d
000001e0: 0000 0000 ca6c 54bd 0000 0000 3e8c c43d
000001f0: 6978 413d 1a29 bbbc f707 53bd d3ae 723d
00000200: ac5b 613d 0730 05bc 46c6 e63b 2ae7 583d
00000210: c413 42bd 8c49 9b3d 0000 0000 4b81 083d
00000220: 0000 0000 0000 0000 c54e 5a3c 0000 0000
00000230: 9f9d c5bc 81e3 14bd 5a1b 4bbd ac1f d8bc
00000240: ba00 7f3b 4cc8 b63a 1e42 34bd 0000 0000
00000250: 2248 32bd 6df5 13bd a213 853d 0000 0000
00000260: 0000 0000 0000 0000 c41d 603d 655a aa3d
00000270: 0172 483d 0000 0000 57af 723d 9341 68bc
00000280: 0000 0000 dc31 8dbc 909b 813d b9d8 b53c
00000290: 0000 0000 833b 2f3d ea79 e43c 0000 0000
000002a0: 0000 0000 f0d2 2fbd a91f 973d 0bd7 c03c
000002b0: 64cc a33d 0000 0000 0262 b8bc c10e 28bd
000002c0: 36da 1e3d 51c3 07bd 0000 0000 2412 07bd
000002d0: e4c7 df3b 0000 0000 0000 0000 d315 06bd
000002e0: 48c4 463d 1d15 363d 17f3 32bd d1cc 80bc
000002f0: a261 423d 7157 c93c 0000 0000 0000 0000
00000300: 1576 1bbc 8057 80bd f3b2 2f3d c8b8 883d
00000310: 4313 24bc 0843 793d 6012 a33d 424f 4f3d
00000320: daa4 4fbd 2b43 553d a3ad 2cbd e757 1f3b
00000330: 0000 0000 cb3b 86bc 1fd7 0fbd ac46 9cbc
00000340: aa2b eebc 0000 0000 e795 613d 0000 0000
00000350: 50bb 71bd 5372 61bd e464 43bd 0000 0000
00000360: 8bcf 81bc 6cf0 5dbd 0000 0000 68fa 463d
00000370: 9f4c 8abc 0000 0000 67b5 abbc 57c2 3dbc
00000380: 0000 0000 1593 c5bc 5ac0 24bb cd92 8e3c
00000390: 0000 0000 0000 0000 f695 ffbc 2da7 4abd
000003a0: 9ce5 453d 0000 0000 50f9 47bb 0000 0000
000003b0: 0000 0000 75fd 0e3b 3549 5fbd 6c84 b93c
000003c0: e16e 68bc 53cb 30bd 0000 0000 9262 f2bc
000003d0: be35 93bc 0000 0000 7e7a 1bbc dabc 4ebd
000003e0: 06a6 3fbd 9fc7 8abc 805f 6abc 8697 8a3d
000003f0: 06ac 573d 0000 0000 c074 9c3d 0000 0000
0.032509673 -0.032610577 0.0 0.0 0.0 -0.021731472 -0.044325817 -0.0058113253
0.0 0.0 -0.052020423 0.020168874 -0.028462583 -0.0072400696 0.057550967 -0.019851556
0.0 0.0 -0.052795798 -0.014895925 -0.019361643 0.0 0.0 0.073244475
0.017923232 0.0 0.030437576 0.047097426 -0.02082571 -0.009143739 -0.048602287 -0.005103875
0.0 -0.025290081 0.038171906 0.0 0.07679314 0.06091546 0.011236268 0.0
0.0 -0.05703583 0.072968364 0.04643403 -0.09723931 0.07011917 -0.028249687 -0.00427561
0.0060879947 0.0 -0.016685767 -0.05413022 0.09031847 -0.0017698751 0.07542491 -0.008981427
0.0 0.0 -0.015500583 -0.06789411 -0.01589457 0.0 -0.050130825 0.027481835
-0.018245423 -0.047566295 0.0 0.0 -0.009588114 0.0 -0.017887898 -0.0024803882
0.0 -0.025160888 -0.027742025 -0.018930977 0.0366097 -0.009289983 0.0 0.046359792
0.0 0.041750927 -0.007597165 0.0 0.0 0.05651552 -0.039955534 -0.00032612233
0.0 0.0 -0.04140634 0.0 -0.048663687 0.0 0.0 -0.028278958
0.045241863 0.0 0.0 0.0 -0.028560655 0.0 0.061827052 0.0
0.0 0.03630969 0.060203996 -0.0077609266 0.0 -0.005510204 -0.02920413 0.0
0.02680612 0.015045407 0.0 0.0 -0.010310209 -0.044277657 -0.047951125 0.05530784
0.0 -0.05186156 0.0 0.095970616 0.047233973 -0.022846747 -0.051521268 0.059248757
0.055019066 -0.008129126 0.007042679 0.05295483 -0.04738213 0.07582387 0.0 0.03332643
0.0 0.0 0.013324444 0.0 -0.024123011 -0.036349777 -0.04958663 -0.02638229
0.0038910345 0.0013945191 -0.044008367 0.0 -0.043525822 -0.03612273 0.06497885 0.0
0.0 0.0 0.054715887 0.08318023 0.048936848 0.0 0.05924925 -0.01417579
0.0 -0.017235689 0.06328499 0.022198068 0.0 0.042781364 0.027890164 0.0
0.0 -0.042925775 0.073790856 0.02354004 0.07997969 0.0 -0.022507671 -0.041029695
0.03878232 -0.033145253 0.0 -0.032976285 0.0068292487 0.0 0.0 -0.032735657
0.048527032 0.04445373 -0.04368886 -0.015722664 0.04745639 0.024577828 0.0 0.0
-0.009488602 -0.06266689 0.04289527 0.06675869 -0.010014358 0.06085494 0.07962489 0.050612696
-0.050694324 0.05206601 -0.04215778 0.0024313868 0.0 -0.016385933 -0.035117265 -0.019076668
-0.029073555 0.0 0.0550746 0.0 -0.059016526 -0.05504067 -0.04770364 0.0
-0.015846035 -0.054184362 0.0 0.04857865 -0.016882239 0.0 -0.020960523 -0.011581979
0.0 -0.024117986 -0.0025139065 0.017403984 0.0 0.0 -0.031199437 -0.049475837
0.048314676 0.0 -0.0030513592 0.0 0.0 0.0021818553 -0.054513175 0.022646151
-0.014186592 -0.043162655 0.0 -0.029588018 -0.017969962 0.0 -0.009489654 -0.05047307
-0.04678919 -0.01694089 -0.014304996 0.06767182 0.05265429 0.0 0.07639456 0.0

sequential_2/dense_4/MatMul f4 [600, 4]
00000000: 6380 b13d 7346 61bd edc9 a03d cf51 51bd
00000010: b1f2 953d d05f d5bd 24cd a83d aa3e 893d
00000020: f08a fe3c fa05 bfbd 1650 0dbd 9458 dcbc
00000030: a61b c9bd a08c b83c ebac 2dbd c77b 3cbd
00000040: cc91 0bbd 9022 a4bb 3ae0 9dbd d74c acbd
00000050: 5e06 a13d 3eab c03c 4296 083e 982d 58bb
00000060: 79b0 b43b 77c6 1fbb ec7a c93c 5d62 243d
00000070: 1e5b 51bc 1ba0 f5bc be6d 0d3d f4d3 82bd
00000080: 66ec 83bd 5817 6f3d d05c f6bc f871 6d3d
00000090: 61f3 3dbd 22c7 b9bd 4cb4 9b3c d40f 3f3d
000000a0: 655b 4b3d 0b43 403c f9a6 533d 01dd fc3d
000000b0: 8624 653d db64 ca3d 9e4f c5bd 0b39 3abd
000000c0: 5343 653c b86c d0bd 0f83 b93c cdd4 4abc
000000d0: 3bcd a5bc bfa3 0d3d f711 a3bd 7c96 973c
000000e0: 24b4 b73b 0ec9 b83d b4cb d8ba 624c 0fbe
000000f0: 273d 413b 1e8e a3bd 5b5d a93d 079e 2e3e
00000100: ac4f 483d 6f44 b7bd 2444 e2bc eccf 90bd
00000110: 279c 91bd 9059 19bc a8c6 793d 180f bbbc
00000120: 6540 69bc e3e2 513d 9b77 b73d 62ca 0d3e
00000130: c4e8 b53d 06f7 8ebd 60cb 6e3d 190e 1abd
00000140: 3262 8cbc b299 6a3d b98d fe3b 9238 b03d
00000150: 9416 edbc da08 34bd a822 e03c a88c f63c
00000160: 5609 93bd 9c1a 373d ec72 99bc 7005 b53c
00000170: 06b6 d33d d833 d83d afa8 07be 8652 f8bd
00000180: 53a6 d73d 780d 55bd 9f0e d93d 393b 813d
00000190: c004 61bb 8089 053a 4c3b 53bd 34d1 9d3d
000001a0: 9ddb a13d bc50 b03d ac73 123c b8db 263d
000001b0: 97fc 0c3d 029e b23d c394 dbbd 8fdf 42bd
000001c0: e82f 88bc f80a 26bd 8b18 cb3d d550 0c3e
000001d0: d8ef ca3c e302 2cbd 9ad0 63bd 3c55 8c3d
000001e0: 4dc8 f4bc de6b 6f3d 6ffa 043d f39f ca3d
000001f0: 9d65 b53d d813 403d 06a2 18bd f325 393d
00000200: ded1 88bd f408 223d 0082 f539 5e3b 21bd
00000210: 7d61 973d a6ec 67bd a7db fb3d 1eb6 523d
00000220: 6289 ea3d de17 1ebd 1648 94bd 20cd 90bd
00000230: 70f6 e13c cb1e 54bd d4b0 3bbd 9874 ad3d
00000240: aaff fc3c 83c5 9a3d f8e8 23bd 13d8 e4bd
00000250: 9196 753d 667e a0bb 917c e8bb 2d4a 18be
00000260: 51f2 953d 5edc 893d ada3 adbd 5ab7 6d3c
00000270: 297e adbd 8897 0bbd f0e6 99bc f8ab d53c
00000280: 54f8 993c 64ac bdbd c5eb 9abd 7604 b53d
00000290: 43cd adbc 5711 c6bd b12c b13d 4e58 af3d
000002a0: 0aff c1bb 0819 ea3d 42e1 1fbc a734 05be
000002b0: 4e47 e03b 3f51 0e3e e8b4 b8bd 3922 b8bd
000002c0: 8676 afbc 5e96 3dbc b484 103e bc40 b03d
000002d0: 914c cf3d 57d8 03bc 41fc 74bd bed5 00be
000002e0: bce5 b73d c2a6 89bd 74b4 063e 14d5 1f3e
000002f0: f043 053d 22ff aa3d de97 183d 8500 433d
00000300: b024 08bd 85ea f73d 2e61 253c b808 303d
00000310: c255 babd 3c42 d0bc d492 2a3d 6665 963d
00000320: 1021 e5bc 2272 13bc e202 d23d 128f 363e
00000330: 4b1f 59bd 11a8 7e3c 28db 8f3d 45d8 3e3d
00000340: d82a e23d 8845 a43d 91e2 1bbe 6985 8bbd
00000350: e78b a03d 69f9 82bd c0b5 5f3d de09 0f3b
00000360: e6a9 cc3d aff0 673c 56a0 8ebd 6e00 1dbe
00000370: f520 1abc d74c 8dbd b4c7 393e 5176 be3d
00000380: acc6 0bbd ac87 033d 5c51 8cbc 70c5 8d3d
00000390: 578f a7bd fcc0 403d b817 d0bc 9599 6ebd
000003a0: a0a9 853c 71d4 6c3d a2a4 8f3d 5192 ce3d
000003b0: c714 ef3c 3245 c3bd 7501 1d3e fe5c b33d
000003c0: 345e 7bbd 421e 603d 6f84 f63c 1842 9ebd
000003d0: 4c33 7cbd b87d 90bd 8c19 1c3d a00d 8dbb
000003e0: 9df1 f6bc d771 dabd 028b f03d a309 363d
000003f0: f03d 453d 2b41 c3bc 9095 953d cc64 86bd
0.08667066 -0.054998826 0.07851014 -0.05110341 0.0732168 -0.104186654 0.082422525 0.06701405
0.03107211 -0.09327312 -0.034500204 -0.026897706 -0.09819727 0.022527993 -0.042401236 -0.04601648
-0.03407459 -0.005009003 -0.077087834 -0.084130935 0.078625426 0.023519155 0.13338569 -0.003298616
0.0055142012 -0.002437977 0.024594747 0.04013287 -0.012778072 -0.02998357 0.034528486 -0.06388083
-0.06441574 0.05837187 -0.030073553 0.057970017 -0.046374682 -0.09071185 0.01900687 0.046645954
0.049647707 0.011734734 0.05167291 0.12346841 0.055943035 0.09882518 -0.096343264 -0.045464557
0.013993102 -0.101769865 0.022645501 -0.012379837 -0.020239463 0.03457999 -0.07962411 0.018504374
0.005606191 0.09022723 -0.00165402 -0.13993981 0.0029485913 -0.07986091 0.08269759 0.1705247
0.048904106 -0.089485995 -0.027620383 -0.07070908 -0.07109862 -0.009359732 0.06098047 -0.022834346
-0.014236544 0.051241767 0.0895836 0.13846734 0.08882287 -0.0698071 0.058299422 -0.0376111
-0.017136667 0.05727548 0.0077683595 0.0860454 -0.02894143 -0.043953754 0.027360275 0.030096367
-0.07179515 0.04470311 -0.018731557 0.02209732 0.103374526 0.105567634 -0.13247941 -0.12125115
0.10529771 -0.052014798 0.10598492 0.06310124 -0.0034335107 0.00050940365 -0.05157022 0.07705918
0.07903216 0.08609149 0.008938711 0.040736884 0.034420576 0.08721544 -0.107217334 -0.047576483
-0.016624406 -0.040537804 0.099167906 0.1370271 0.02477257 -0.04199494 -0.05561886 0.06852195
-0.029880667 0.05845248 0.032465395 0.09893789 0.08857272 0.046893924 -0.037263893 0.045202207
-0.06680654 0.03955932 0.000468269 -0.039363258 0.07391641 -0.05662217 0.12297755 0.05144321
0.11451985 -0.03859698 -0.07240312 -0.070703745 0.02758333 -0.05178718 -0.045822933 0.08469504
0.030883629 0.075572036 -0.0400171 -0.111740254 0.059958044 -0.0048978804 -0.0070949276 -0.14872046
0.07321609 0.06731485 -0.08478484 0.014509046 -0.08471329 -0.03408006 -0.018786877 0.026082978
0.01879517 -0.092613965 -0.07564501 0.088387415 -0.02121604 -0.09671276 0.08651102 0.08561765
-0.0059202956 0.114305556 -0.0097582955 -0.13008367 0.0068444377 0.1389818 -0.0901888 -0.089909025
-0.021418821 -0.011571495 0.14113122 0.08606097 0.10122026 -0.008047185 -0.05981088 -0.12581536
0.08979365 -0.0672126 0.13154775 0.15608627 0.032535493 0.08349444 0.037254207 0.047607917
-0.033238113 0.12105278 0.01009397 0.042977065 -0.09098388 -0.025422208 0.041643932 0.07343559
-0.027969867 -0.008999379 0.10254456 0.17828014 -0.05300836 0.015543 0.070242226 0.04659297
0.11043328 0.080210745 -0.15223147 -0.06812555 0.07839184 -0.063952275 0.05461669 0.002182595
0.09993343 0.0141565045 -0.069641754 -0.15332195 -0.009407272 -0.06899422 0.18142587 0.09299911
-0.034125015 0.03211181 -0.017128639 0.06922424 -0.08181637 0.047059044 -0.025401935 -0.058251936
0.016316235 0.057819787 0.07013823 0.100865014 0.029184712 -0.09534682 0.15332587 0.08757971
-0.061369136 0.054716356 0.030092446 -0.0772745 -0.061572358 -0.07055229 0.0381103 -0.0043046027
-0.030144507 -0.106662445 0.11745264 0.044442784 0.04815477 -0.023834785 0.073039174 -0.06562194

sequential_2/dense_5/MatMul f4 [3, 600]
00000000: b1b2 93bc d8d6 433d dc4d 483d 8206 b13d
00000010: dc60 7abd e935 45bd 5237 73bd 1a66 493d
00000020: 84c0 453d b76a cbbd 1c31 b9bc 9e14 733c
00000030: befb 9ebc 014d 4cbd a401 d73c 9a2f 22be
00000040: a0e6 683c a4a7 b53c ea84 bdbd af15 c8bd
00000050: c427 48bd 6815 ac3d 98ba 183d 0aff 253e
00000060: fc31 01be e4b5 863d 1c4b ccbb 9534 2c3e
00000070: 47e9 4abe 0141 82bd 9415 3cbd cd06 d93d
00000080: b89d df3c 74a8 ffbd 7c0f bdbb 1e91 803d
00000090: 34c6 053e 3dbe f33d 559e 0e3e 52a9 4bbd
000000a0: e0bd 343c 62b8 debd 7fdc 553e 62e2 983d
000000b0: e554 f0bd 872a ad3d 3358 16be 5249 9c3d
000000c0: 8e8a 4c3d 6eba 963d bd9b dabd 98a5 f4bc
000000d0: 7428 143e 76ec c2bd 7050 2e3e 00ba 26be
000000e0: b5a8 83bd 20a8 313d 057a babd 1aae f2bd
000000f0: 3ec2 72bc 481b 22bc 4a54 22bc 22dc b2bd
00000100: 0c98 1ebe 4a5a 1bbd 184d 9cbc 6cda 233d
00000110: 88bd e8bc 2003 433d 18fb 2fbe 3ee9 c0bd
00000120: d4b3 8b3d bf0d ebbd c8ab 173d 1064 743d
00000130: edeb 47bc 7b2a ce3c d805 4b3c d3c3 3cbd
00000140: 585f 51bd ce25 163d 7d6e 793c 7a48 76bd
00000150: dcc5 0bbd 4a8a f43c 09d1 0bbe 901d c7bd
00000160: 689c 283d e040 c1bd 9b27 1abe 8092 7e3b
00000170: e25c 07be f4be 253d d4af 5bbd 1332 603d
00000180: 9e78 a83d 2404 ccbc e0db 13bb b097 843d
00000190: 12e5 26bc a0c8 713b fb15 fb3d 4bf3 93bd
000001a0: c4da 5f3d 654b 7fbd 6353 353e 551c 9c3d
000001b0: 8082 6e3a 5716 533d 063f cbbd 90c4 82bc
000001c0: 893d e5bc 4cd1 1dbe f0b7 2b3d d8e2 5bbc
000001d0: fe35 2fbd 0a54 45bd c495 1bbe 7b53 853d
000001e0: d858 4dbd 6a20 91bd b1ef c6bd 6749 1f3d
000001f0: 2062 ba39 e1c0 473d be3d 34bd 9aa0 203e
00000200: 7703 d33c f8cd b33d b7ac 4f3d 69e2 133d
00000210: 94e8 85bd 1c2f 653d 3874 83bc 9023 0abc
00000220: e002 6d3b c0ac 25bd d54c 0cbb d0b4 c6bb
00000230: 65f3 8b3c e658 833c 9352 32bd 1e7a 8bbd
00000240: 84e2 03be ca32 ccbd 11a6 b4bd 08d5 083c
00000250: e23e 32be a81a 20be 9922 183e f030 c73d
00000260: cc66 063d ca75 9cbd a92e d93d 1a23 703e
00000270: ee2e 133d b4cd b6bc 21a3 423e 7836 15bc
00000280: 1592 cabd 1a4e 53bd 60ba e23d e438 96bc
00000290: 0a03 b13d 8a84 623d b5fe b5bc 24a9 15bd
000002a0: 7ce3 123d 2c69 b4bd 9885 cf3d 96f8 df3d
000002b0: 0630 313e 35ad 6bbd e694 07bd c6f9 36be
000002c0: 197a 3b3e 967b 3fbd 921d adbd 22da 6bbc
000002d0: a968 8fbd 813e a4bd 8ee8 ac3d 84bb d93c
000002e0: d236 a93c 84c0 873d 2fea 30be f401 a8bc
000002f0: d8e5 c23d f1c6 183e 0079 17ba ceca 8f3d
00000300: bbda d03b 4303 12be 907b 4ebb 026f 1fbd
00000310: 9f82 f0bd 3bb3 f73d f8b5 2e3e 26fb 2d3e
00000320: 8d7d 8fbd 9126 bf3a a6ba cebd 471a 9a3b
00000330: 30c5 923d d47f 763b 270a 4a3d 1aa9 cbbc
00000340: 4084 05be f0f9 ac3d 7fac 8a3d 04a0 643d
00000350: edf4 a6bd d99d 1abe a23f c3bd 1839 09bc
00000360: 2b60 3dbe 0651 4abd 9868 f6bc 9959 9dbb
00000370: 7b1a 3ebe e333 b6bd d248 a4bb f60f 3ebd
00000380: 9c2a a13d 6ba1 963d be6a 96bd 5583 3ebd
00000390: 1ece 87bd 9073 e93b 45b2 8e3c 7811 03be
000003a0: 9f2f 813d feea 90bd f664 c1bd 0015 4bbb
000003b0: 6fa0 9dbd bc85 2dbe 9f23 bcbd 3c0f 4b3d
000003c0: 83c3 9fbd 7ef3 a6bc 9cc6 ac3d b922 2bbe
000003d0: 393f 7dbd 9a19 923d 76fd 73bd 5a16 9bbd
000003e0: 0d6f 82bd 4faa 8c3d d56e a2bd 376c 2e3e
000003f0: b482 033e c67f 903d 3109 1b3e 3405 adbc
-0.018029543 0.047812313 0.048902377 0.086438194 -0.06112753 -0.048147116 -0.05937893 0.049169637
0.0482793 -0.099324636 -0.022606425 0.0148364585 -0.01940715 -0.049878124 0.0262459 -0.15838471
0.014215142 0.022174664 -0.09253867 -0.09769761 -0.04886605 0.084025204 0.037287325 0.16210571
-0.12616724 0.06577662 -0.0062345397 0.16816933 -0.1981555 -0.06360055 -0.045919016 0.10597
0.027296886 -0.12483302 -0.005769668 0.06277679 0.1306389 0.119015194 0.13927586 -0.049722023
0.011031598 -0.10875012 0.20884894 0.07465054 -0.11734942 0.08455377 -0.14682083 0.07631172
0.049936824 0.073597774 -0.10674236 -0.029864118 0.14468557 -0.095177576 0.17022872 -0.16281891
-0.06428663 0.043373227 -0.09105305 -0.118496135 -0.014816819 -0.0098942 -0.009907791 -0.08733393
-0.15487689 -0.037927903 -0.01907973 0.040003225 -0.028410688 0.047610402 -0.17185628 -0.094194874
0.06821409 -0.11477231 0.037029058 0.05966574 -0.012202245 0.02516674 0.01239153 -0.04608519
-0.051116318 0.036657147 0.015224096 -0.060127713 -0.03412424 0.029851098 -0.1365396 -0.097224355
0.041164786 -0.09436202 -0.15054171 0.0038844645 -0.13219026 0.04046531 -0.05363448 0.054735254
0.08226131 -0.024904318 -0.0022561476 0.064742446 -0.010186451 0.0036893263 0.12260052 -0.07224139
0.05465199 -0.06232776 0.17707591 0.076225914 0.00090984255 0.051534977 -0.0992413 -0.015962869
-0.027983444 -0.15411872 0.041923463 -0.013420783 -0.0427761 -0.04817585 -0.1519385 0.06510063
-0.050133556 -0.070862606 -0.09713686 0.03888836 0.00035549793 0.048767928 -0.044004194 0.15686265
0.025758488 0.0877952 0.050701823 0.036104593 -0.065385014 0.05595313 -0.016046628 -0.00843133
0.0036165044 -0.04044795 -0.00214081 -0.006064035 0.017083833 0.016033601 -0.04353578 -0.068104014
-0.12879378 -0.09970625 -0.08820737 0.008351572 -0.174068 -0.15635169 0.14856948 0.09726131
0.03281288 -0.07639654 0.10604603 0.2345089 0.035933428 -0.022314884 0.19007541 -0.009107225
-0.09891144 -0.051588155 0.110707045 -0.018337674 0.08643158 0.05530218 -0.02221618 -0.03653826
0.035861477 -0.088091224 0.10132903 0.10936086 0.17303476 -0.05753823 -0.033100985 -0.17868719
0.18308295 -0.04674872 -0.08452906 -0.014395269 -0.07002384 -0.08019734 0.08442794 0.026578672
0.020656023 0.06628516 -0.17276834 -0.020508744 0.095164955 0.1491964 -0.0005778223 0.07021104
0.006373731 -0.14259057 -0.0031506754 -0.038924225 -0.11743664 0.120947324 0.17061603 0.16990337
-0.07006369 0.0014583637 -0.10094194 0.0047028395 0.07166517 0.0037612813 0.04932609 -0.024860907
-0.1303873 0.08446109 0.06771182 0.055816665 -0.08152185 -0.15099277 -0.09533621 -0.008375429
-0.18493716 -0.049393676 -0.030079171 -0.0048019406 -0.18564789 -0.08896615 -0.0050135637 -0.04640194
0.07869455 0.07355007 -0.07344578 -0.046511967 -0.066311106 0.007124372 0.01741899 -0.12799633
0.06307911 -0.07076071 -0.09443085 -0.0030987859 -0.07696616 -0.16945547 -0.09186482 0.049575076
-0.07800963 -0.020379778 0.08436319 -0.16712464 -0.061827872 0.07133789 -0.05956789 -0.075726226
-0.063688375 0.06868421 -0.07931296 0.17033468 0.12842828 0.07055621 0.15140225 -0.021120645
